enitre_model.pth (torch, 361503 bytes, 6 tensors)

weight f4 [100, 784]
00000000: 0437 08bc 6061 98bc 3fe3 05bd 38b9 ac3b
00000010: 7e2a ea3c fcae 953c d808 bb3c 97da 103d
00000020: 80d9 13bb 2046 0a3c c8db ebbc d41a 443c
00000030: 94b7 163d aaf8 4f3d e022 54bb ccd5 dcbc
00000040: 485c 1c3c 5d7e 0abd 5fdf 0b3d 8b29 123d
00000050: 0082 59bc 063d e63c 74b3 8c3c 52ab 8e3c
00000060: 2ec7 69bc 80dd 2eba bc42 b5bc d809 013c
00000070: f06e 0fbd 2048 643c 4a62 24bc 44c3 743c
00000080: 86cc 453d 414d a33c 4283 963c cdf1 e13c
00000090: a056 743b d063 393d 4180 b6bb e6ab 6e3d
000000a0: 7f8c c83c 3da4 5a3d 3cec dfbc dd19 6b3d
000000b0: 8e76 5139 8a5a 0c3d 6911 cc3d 4c0a f73d
000000c0: db6e e23d c3c5 153e 5d77 743d b2c9 d73c
000000d0: 1c43 a7bc f44d 7d3c cc0a 8cbc ce70 8c3c
000000e0: 02b0 b03c 209b 733b 25a9 ba3d 93be 823b
000000f0: 11b7 053d 628f 553c 5461 463c fdd4 9f3c
00000100: ec5c 2fbd f316 a0bd 9e7a 8dbd 2d7b 34bd
00000110: d5b4 9bba 27e4 493d bd57 1dbc 134e 793d
00000120: 3ccb fb3d a055 c43d 24cd 9e3d bd89 923d
00000130: 8af3 f73c f63e 4cbb da8d bd3d 65df 3d3d
00000140: caa5 f7bb 5bc4 cabc 26f2 fe3c 781f 28bc
00000150: bc6f 26bc b0fe c23c dfb1 383d 913a 893d
00000160: da4d b33d b3af 12bd b4d3 493c c399 15bc
00000170: 0ea0 93bd a618 b3bd 6320 10be d96d f1bd
00000180: b1a7 91bd 7359 b5bb 37d2 29bd bbb0 523d
00000190: 51fe 8bbb b451 e0bc cf72 613d 7a0d 21bc
000001a0: 9e33 063d 4c16 e93d 8c0e 373d b25d c03d
000001b0: 7765 acbc 3eb9 cd3c 39b4 393c 28f5 cc3c
000001c0: 4063 c7bb f29a 153d 2837 dd3c 16a8 c73d
000001d0: 8318 00bb d473 a1bd d88b d0bd 566b 64bd
000001e0: 965c b4bd 0132 07bd b91b 07bd fe8a f33a
000001f0: 2d0c d1bb d78b 4b3b 371b 6a3d 5d41 083d
00000200: bee3 f13c 2c96 963b bba5 36bc 5759 033d
00000210: 218d 383d f376 5f3d c6cf c13d 9a20 e33d
00000220: c0eb 103e 75a8 743d 45e6 5f3d 6daa 763b
00000230: c8d1 d9bb 1ad8 b33c 140a 7f3d cbdd 13bd
00000240: 7ebc a7bd b774 d6bd 19a1 acbd e1b0 45bd
00000250: b67e a3bd 375f 9cbd 8cac d9bc cb16 c9bc
00000260: 7284 953c 9c18 e939 d41d 0e3d 70df c43c
00000270: 7f82 c53c dbbc 5c3c 295e 2ebd 61e5 6e3c
00000280: 0546 133d 7dda 013d 210f ac3d bbb1 77ba
00000290: 0ea1 933d b93a 033e 4221 0d3e 4b97 93bc
000002a0: fa52 fd3c dc3c 8c3b eb03 8cbd c81f acbd
000002b0: 1d65 bebd 40db adbc f46f 61bd 1404 efbc
000002c0: 9aa3 11bd 9a8a f8bc 2923 303c 9cdc 3a3d
000002d0: 9da3 2f3d ac65 f43c ee19 183d 1488 0ebd
000002e0: c022 b2bd 9f2f 66bd a60e 98bd 8925 053d
000002f0: b2f0 9d3b 061d 41bd e47c 0d3d 4f63 b13d
00000300: 37f7 fc3d 465d 1d3e a4bd 963d 7a7b 093d
00000310: aa1f 18bd 52fc 9dbd 6d85 b1bd 5099 0bbe
00000320: 5cbe 9dbd 018f 08bd 8e4e 94bd 0fd4 a1bc
00000330: e0a5 f13c b158 3e3d 49f3 f73d e0d6 9e3d
00000340: 4277 d43b 2110 40bc 3fcc 523b dcc7 523c
00000350: c17e b2bc fa7e 93bc f37e 673c c30c a43c
00000360: 2af6 f5bc cf4d 0a3d b3c3 ec3c eeef 003e
00000370: 7caa 973d 9a72 1a3e 8666 a63d 7cfb e93c
00000380: d911 923c 2c1e 83bd d051 24bd 68c8 57bd
00000390: fe88 87bd 3e58 21bd 2b67 b53c ca74 8e3d
000003a0: 41fd 6d3d c2c4 503d 64bf 273d 16dc b13d
000003b0: 9aa3 393d b53d 0c3d c62c e53c e589 03bd
000003c0: 80b6 00bd 22f6 f1bb 1de7 523d dd72 883c
000003d0: f29c c03b 2fc9 c13c faae 9dbb 8f4c ef3d
000003e0: 368f 2f3e 6a6d 1d3e 0ff3 2e3e bc3e a13d
000003f0: 393a 80bb a98a 69bd b4a5 9fbd fa9b 443c
-0.008313898 -0.01860112 -0.032687422 0.0052711032 0.028584715 0.018271916 0.022831365 0.035364714
-0.002256006 0.008439571 -0.028791323 0.011969287 0.036796167 0.050774254 -0.003236942 -0.026957415
0.009543486 -0.033811916 0.03414857 0.03568415 -0.013275623 0.02810527 0.017175414 0.017415676
-0.01426868 -0.00066705793 -0.022126548 0.007875882 -0.035017908 0.013933212 -0.0100332 0.014939133
0.048290752 0.019934298 0.018373135 0.02758112 0.0037283078 0.045261204 -0.0055694883 0.058269404
0.024481056 0.053379286 -0.027334325 0.057397712 0.00019975958 0.034266032 0.09964258 0.12062511
0.110563 0.14626221 0.059684146 0.026341293 -0.020417742 0.01546048 -0.017094992 0.017143633
0.021568302 0.003717132 0.09114293 0.0039900034 0.03264529 0.013034673 0.012108166 0.01951074
-0.042813227 -0.07816877 -0.06908153 -0.044062782 -0.0011879454 0.04928985 -0.009603438 0.060865473
0.12294623 0.09586644 0.07753971 0.07155178 0.030267496 -0.0031165457 0.09255572 0.046355624
-0.0075576054 -0.024751833 0.031121325 -0.010261409 -0.0101584755 0.023803085 0.045091506 0.06700624
0.087550834 -0.03581209 0.01231854 -0.009130898 -0.072082624 -0.08744936 -0.14074855 -0.1178853
-0.07112063 -0.005534345 -0.041460242 0.051438075 -0.0042722602 -0.02738271 0.05504113 -0.009829873
0.03276407 0.11381206 0.044691607 0.09392871 -0.021044476 0.025112744 0.011334472 0.025019243
-0.0060848296 0.03652472 0.02700384 0.09748857 -0.001954586 -0.078834206 -0.10182923 -0.055766426
-0.08806722 -0.03300667 -0.032985423 0.0018580852 -0.0063796253 0.0031058693 0.05715486 0.03326546
0.029527541 0.0045955386 -0.011147912 0.032067623 0.045056466 0.0545568 0.09463458 0.11090203
0.14152431 0.059730966 0.05466296 0.0037638203 -0.0066473223 0.021953631 0.06226547 -0.03610019
-0.08190249 -0.1047148 -0.084291644 -0.048264388 -0.079831526 -0.07635348 -0.026571535 -0.024547001
0.018251631 0.0004445956 0.034696415 0.024032325 0.024110077 0.013472761 -0.042570267 0.014581055
0.035955448 0.031702507 0.08401323 -0.0009448786 0.07208453 0.1281537 0.13782218 -0.018016478
0.030923355 0.004279716 -0.06836685 -0.08404499 -0.092966296 -0.02122271 -0.055038407 -0.02917675
-0.035556413 -0.030339528 0.01075057 0.045620546 0.042880643 0.029833637 0.037134103 -0.034797743
-0.08698034 -0.05619776 -0.07424669 0.0325065 0.004819953 -0.04714682 0.034542933 0.0866152
0.1235184 0.15367612 0.0736039 0.033565022 -0.037139572 -0.07714142 -0.08668027 -0.13632703
-0.07702324 -0.033339504 -0.072415456 -0.019754438 0.02949804 0.0464713 0.1210695 0.07755828
0.006483943 -0.011722595 0.0032165197 0.012865033 -0.021788957 -0.018004883 0.014129388 0.020025617
-0.030024607 0.03376561 0.02890191 0.12591526 0.07405564 0.1508278 0.081250235 0.0285623
0.017830776 -0.06402239 -0.040117085 -0.052681357 -0.06617926 -0.039390795 0.02214392 0.069558695
0.05810285 0.050968893 0.04095401 0.08684556 0.04532204 0.034238536 0.027975451 -0.03211393
-0.031424046 -0.0073840776 0.051489938 0.016656334 0.0058780843 0.023655502 -0.0048121186 0.11684524
0.17144474 0.1537377 0.17084907 0.07873294 -0.0039131907 -0.057017002 -0.07795277 0.012000078

bias f4 [100]
00000000: d306 7a3d d837 36bd 89f6 993d 0d70 2c3d
00000010: aa56 263c 7214 1abd b985 543d 7f76 923d
00000020: 0e81 4b3e 99d3 233c 38a3 a53d e52b 02bd
00000030: 0ec5 a33d f173 c2bc d350 2a3e 8bb5 62bc
00000040: 3051 d63c 17a8 963d 84df 17be 040c cabc
00000050: da0a 70bd 18dc 59bc 95a4 e53c dac0 4e3e
00000060: ecb3 dd3c 9082 1bbc 6b87 04bd 49ab 893d
00000070: 5626 3d3e 7c0f 95bd 0904 39bc 1d4e 51bd
00000080: 6a3d 943c 5ec7 ab3d ce60 37bc 86ac 843d
00000090: 9d6b 763d 716c e23d 38af 193c 468e 223d
000000a0: cc20 50bc f4c3 4bbc 89b2 0e3e 02bc b13d
000000b0: 1401 b53d 5d72 a1bd 5f75 013d 8e5a 96bc
000000c0: a241 833d 98fe 943d 1646 64bd 302f 3f3d
000000d0: 59b0 abbc 24c5 853c e919 f93c 5831 ae3d
000000e0: a915 f73c f3b2 d33d 8a39 a53d aa33 b9bd
000000f0: 4849 19bc a07e 0e3d 8cce 833d 5040 adbd
00000100: 2c70 3e3d ff3c b93d f2d0 a63d c3b8 1f3d
00000110: 56d5 793d d63b 2c3d a4e9 df3d 98e5 063d
00000120: a19d f23d ba20 a43d 286a 293d b687 31bd
00000130: 3eb1 253b bab8 e6bd d01c f23d 4ac4 443c
00000140: f6e3 653b 14f2 463d f9e8 57bd 2046 db3d
00000150: 54a2 b23d f4f7 4bbd c810 203c 87ba 3a3e
00000160: 3d1b cfbd 9ae3 94bc 2994 b7bd 37d7 ddbb
00000170: 4c64 47bd 02f4 1bbd 85e5 10bd 3c84 3fba
00000180: 7a6f 593e 6100 b43b 8b28 a5bd e3d8 2dbd
0.061041664 -0.04448685 0.07517726 0.042099047 0.010152498 -0.037617154 0.05188534 0.071515076
0.19873449 0.009999179 0.08087772 -0.031780142 0.079965696 -0.023736926 0.16632394 -0.0138372285
0.02616176 0.07356279 -0.14831358 -0.024663933 -0.0586041 -0.013297103 0.02803258 0.20190755
0.027063332 -0.009491578 -0.032355707 0.06722123 0.18471655 -0.07278344 -0.011292466 -0.051099885
0.01809569 0.08387636 -0.011192514 0.06478219 0.06016122 0.1105584 0.009380154 0.039686464
-0.012703132 -0.012436856 0.13935293 0.08678438 0.08838096 -0.07883141 0.031606074 -0.018353727
0.06409003 0.072751224 -0.0557309 0.04667586 -0.020958113 0.016329356 0.030407863 0.08505505
0.030161696 0.10336866 0.08067615 -0.09043057 -0.0093558505 0.034788728 0.0643588 -0.08459532
0.046493694 0.09044837 0.08145322 0.038994562 0.06099447 0.04204925 0.10933235 0.0329338
0.118464716 0.080140546 0.041361004 -0.043342315 0.0025282647 -0.112657025 0.11821902 0.01200969
0.0035078502 0.048570707 -0.052712414 0.10706735 0.08722368 -0.049797013 0.009769626 0.18235217
-0.10112617 -0.018174935 -0.08963806 -0.0067700404 -0.048679635 -0.0380745 -0.035375137 -0.0007305776
0.21233931 0.005493209 -0.080643736 -0.042443167

weight f4 [100, 100]
00000000: 66a9 01bc 1bab cbbd 42a6 a0bc e2f2 8d3d
00000010: c74c 433e c15e 24be cfed 2dbd 9e13 67be
00000020: b180 013d cee4 1bbd 6410 113d 52b6 3e3e
00000030: 0b93 9fbd 5908 2abe a329 003e ecd2 8c3d
00000040: 083e e83c a324 2f3e dace 30bd 2094 9abc
00000050: 2599 8d3d 30ad 6c3d 00e2 53bd d9d1 7cbd
00000060: 0de0 a23e 7859 1c3b bc07 ee3c 746c a93d
00000070: 9c07 04bd a624 23bd 0739 2fbc 548d 89bd
00000080: e6f5 d7bb 3381 8a3d 1cdb 813e c16e 463d
00000090: de05 f83c 1b7f ad3d 737e ca3d 40cd 0dbe
000000a0: cf57 68bd c948 96bd f9d7 e5bc 8fb2 9e3d
000000b0: 9254 acbd 7afc 84bd 6d73 2cbd f7c5 273e
000000c0: 045d 8a3e daed 8abd 4718 a03b d196 e83d
000000d0: a6fc 58bd b93a 35be ab61 56be 8b1e c53e
000000e0: c931 55bd 8d2f 713d 8a9f 43bd 387f 7abd
000000f0: 9871 2fbd c80b f4bd af0f acbd 1a03 c2bc
00000100: ee12 12be 6e2b 06bd a997 893e f5f3 753e
00000110: 5ae1 35bd 3030 a1be fede 973d d99c 533e
00000120: d3cb 94bd 9478 133d 1697 373e edf1 3fbe
00000130: 777c de3d a4ff 44be 90f8 2a3e f4b8 27bc
00000140: b478 dfbd c393 ce3d ba21 cdbd 8cfc 593c
00000150: 399a 95bd 0dd9 59be a31d 113e b413 b93d
00000160: c620 5cbd 3549 773d 4b99 883a 007b 06be
00000170: 0a83 2f3e 9dcd ac3d 2220 67be 5d30 153e
00000180: eb93 b33c 2089 dbbd 3c6b 50bc be97 c53d
00000190: 97e9 253d 8fa7 043d 46df 013d e948 443e
000001a0: 9483 cdbd feae 0d3d 2fa0 81bc d5aa cdbd
000001b0: 4400 5f3d 3d69 563d 14b0 eabd 7319 25be
000001c0: 9691 81bd fed2 4a3e 1f33 043e ac6f 86bd
000001d0: 2ed6 18bd 2240 ae3c 25dc fcbd c331 2c3e
000001e0: 091c b5bd d585 e4bc e7bf bf3c fc04 4b3e
000001f0: 8658 99be 5754 c03d 2822 07bd 18ca af3d
00000200: 07c6 1a3d 7e6e 553c 4b0d a3bb 68d2 803c
00000210: a2e9 1c3d 1fb4 833d 11d4 01be 1458 983c
00000220: 18b9 67bc aa74 70bd 98c3 43bd b5b2 243c
00000230: b9ae e0bd 174a 44be c032 613d 5d25 10be
00000240: f425 193e 3c3a cbbd c51b 13bd a90b 093d
00000250: 0beb 1d3d 156f a33d c13d 5ebe a019 bf3d
00000260: 093f 833d ed5b dc3d d4ab 5e3c b464 543e
00000270: c994 ef3c ea20 393c bbe6 d13d fb6d e73d
00000280: d29f 0abc 2a14 f83d af3b 813c f850 07bd
00000290: 14b5 333e bfce 003e 6f95 ae3d 790a 433d
000002a0: 2f1b d13c 06be 1e3e 8fa5 d23d 0243 e63d
000002b0: bdf3 983d 0922 f0bc e5b0 71bd 3c31 803d
000002c0: ca5b 803d d77d f8bd 6f79 8f3c 5ca8 c4bc
000002d0: b4a4 48bd 7bd9 423d 03ba 34bd 9475 883e
000002e0: e0ff a13d f0a0 1abd f597 133e 6597 0d3e
000002f0: 4cfc 20be f9e7 c8bc 94ab 003e 6e5f 813c
00000300: 0a4f a1bd 57c9 01bc 96d9 27be cd85 4c3d
00000310: 93d7 3dbd 3f8c e73d 9803 ccbd 481d 9fbd
00000320: 087c 8a3d 180f 7f3d d2de 5fbd cae8 3bbe
00000330: afd3 e3bc ce05 963d 2df6 2e3e b2a7 013e
00000340: 2e41 d0bd aefa 293d e44f a93d 0d28 8e3e
00000350: 2f70 b03d ed68 b9bc a2bf 37be eab4 a23d
00000360: 7477 b63d ce47 37be 49e8 0e3d 3952 33bd
00000370: 5a42 623c 148b a33d 56e7 b03c 7633 33bc
00000380: faa9 8f3e b44a 1d3e 29eb 003d a860 2ebc
00000390: 947e 0d3d 3de0 de3c 3ff2 4ebe 3205 5abc
000003a0: 7163 233e 7e10 c539 0f9e 183c da7d 043e
000003b0: 03b2 80bd 3644 013e 0c5d a23d 1298 4d3d
000003c0: b946 ac3a 36f2 483e d64b 203c f65a f33d
000003d0: a59d bebd faad d2bc 1f96 813d 40b4 663c
000003e0: 80ac ccbd 826e 563d e21d 573e 2b9f b03c
000003f0: db32 ba3d 1c87 393c 39db 863c 587f d8be
-0.007913923 -0.09944745 -0.019610528 0.06931092 0.19072257 -0.16051771 -0.04246312 -0.22566077
0.03161687 -0.038060002 0.035416022 0.18624237 -0.07791718 -0.16604747 0.12515883 0.06876168
0.028349891 0.1710382 -0.04316602 -0.01886946 0.069139756 0.057782352 -0.051729202 -0.061723564
0.31811562 0.0023857038 0.029056422 0.08272639 -0.03223382 -0.039829873 -0.010694749 -0.06716409
-0.0065905927 0.06762924 0.2536248 0.048445467 0.030276235 0.08471509 0.098873995 -0.13847828
-0.056724366 -0.073381014 -0.028057085 0.07748901 -0.08414568 -0.064934686 -0.042102266 0.16384111
0.2702409 -0.06783648 0.0048857066 0.11356891 -0.05297532 -0.17698182 -0.20935695 0.38499865
-0.052049432 0.05888324 -0.04775957 -0.06115648 -0.04283294 -0.119163096 -0.08401429 -0.02368312
-0.14265034 -0.03275626 0.2687352 0.24018843 -0.044404365 -0.31482077 0.07415579 0.20665301
-0.07265439 0.036003664 0.17928728 -0.18744631 0.108635835 -0.19238144 0.16696382 -0.010236967
-0.10911694 0.10086777 -0.100161985 0.013304841 -0.07304806 -0.21274205 0.14171462 0.09036961
-0.053742193 0.06037255 0.0010421661 -0.13132858 0.17139831 0.08437655 -0.22570851 0.1456923
0.021921119 -0.10719514 -0.012720879 0.09648083 0.04050597 0.03238636 0.03170707 0.19168438
-0.10034862 0.034590714 -0.015823452 -0.10042349 0.054443613 0.052346457 -0.114593655 -0.1612299
-0.063265964 0.1980705 0.12910126 -0.065642685 -0.037313633 0.021270815 -0.12346677 0.16815858
-0.08843238 -0.027895847 0.023406936 0.1982612 -0.2995035 0.093910865 -0.03299156 0.08583468
0.03778651 0.013026832 -0.00497595 0.01572533 0.038308747 0.0643084 -0.12678553 0.018596686
-0.014143251 -0.05870501 -0.047793955 0.010052373 -0.10970826 -0.19168888 0.05498004 -0.14076753
0.14955884 -0.09923217 -0.035915155 0.033458386 0.038554233 0.079801716 -0.21703245 0.093310595
0.064085074 0.10759721 0.013590772 0.2074154 0.029245751 0.011299351 0.102490865 0.11300274
-0.008460956 0.12113221 0.01577553 -0.033036202 0.17549545 0.12578867 0.08524596 0.04761741
0.025525657 0.15502176 0.10285484 0.112432495 0.074683644 -0.029313104 -0.05900659 0.06259391
0.062675074 -0.12133377 0.017513959 -0.024006061 -0.0489852 0.047570687 -0.044122707 0.26652205
0.079101324 -0.03775114 0.14413436 0.13827284 -0.15721244 -0.024524676 0.12565452 0.015792575
-0.07876404 -0.007921538 -0.16391596 0.04993229 -0.046348166 0.11306047 -0.09961623 -0.07769257
0.06761938 0.062270254 -0.054655857 -0.1835052 -0.0278109 0.07325326 0.17086096 0.12661627
-0.10168682 0.041498832 0.08267191 0.2776493 0.08615147 -0.02263304 -0.17944196 0.07944663
0.089095026 -0.17898485 0.034889493 -0.043779586 0.013809765 0.079855114 0.021594685 -0.010937562
0.2805937 0.15360528 0.031474266 -0.010643162 0.034544542 0.027206535 -0.20209597 -0.013306903
0.15955903 0.00037587056 0.009315028 0.12938634 -0.06283953 0.12623677 0.079279035 0.050193854
0.0013143636 0.19623646 0.009783706 0.11882584 -0.09307412 -0.025717724 0.063274615 0.014081061
-0.09993839 0.052351482 0.21007493 0.021560272 0.09091731 0.0113237165 0.016461955 -0.42284656

bias f4 [100]
00000000: 2e80 f6bb 1622 2b3e 49a0 acbd e8db 92bc
00000010: 6c42 023d 911b 363d 37cb 643d 4da9 cc3d
00000020: 04d9 9c3b 4042 673d 2122 0c3d ffb7 a0bd
00000030: 2bb1 023e 6e58 1d3e 3cb1 a53d 8462 323d
00000040: f9a3 963d 0734 3cbd 87f5 d3bd 8ada 073e
00000050: 8f9c 2cbe 4bda 88bd 85ab 36bd bf5f 583d
00000060: 3950 00be 61f1 853d 791b a03d b059 353d
00000070: c319 673d 1941 943c ee67 9f3d 4909 343d
00000080: 16e6 8ebd e08c 3dbd 57ca 00be 9722 013e
00000090: ebc4 8d3d 6a56 92bd 8131 923d 85f4 d33d
000000a0: 0fd8 f13c 1d0d 913d 8c20 8e3d eab6 483e
000000b0: 4dd0 893d 9fa7 a4bb bb5d 383d 410e 243d
000000c0: b4a1 15be 1dbe 063e 958b ac3d 0587 053c
000000d0: 1806 0b3c ea2d 18bc ba3f 8cbd 7db2 f33d
000000e0: a32f bd3d 61de 01be dca1 3b3b 3a59 f83d
000000f0: 15fb b83c 926e 0e3e a8a0 cebd c639 01bd
00000100: 7f20 393d 7557 e23d 7389 133d d8f8 c6bd
00000110: 9c12 a13d 958a c9bd 1f7e ab3d 63ed 98bd
00000120: 7a37 c63c 307b ef3c c5e2 3b3d d5f6 51bd
00000130: 688d a73d e488 123e 99c1 f4ba 88f7 d3bc
00000140: 7209 9c3d 89e8 863c dd34 5b3e 2aee e1bd
00000150: 6a10 473e 4913 c5bd 9e8a 323e b087 d73d
00000160: e8fe 223d b205 a73d 7c65 d3bd 60ee 413e
00000170: 29a3 4cbd a48b 70bd 6e3d f23d 5d1b 25bc
00000180: 0a5a 21bd e9d1 403d 52e9 ad3c 6454 ffbd
-0.0075226044 0.16712222 -0.084290095 -0.017927125 0.031801626 0.044459883 0.055857863 0.09993229
0.0047866125 0.056459665 0.034212235 -0.078475945 0.12762897 0.15365764 0.080904454 0.043550983
0.07355494 -0.045948055 -0.10349565 0.1326696 -0.16856597 -0.06682261 -0.044597168 0.052825686
-0.12530603 0.0654018 0.0781774 0.044274986 0.056421053 0.018097447 0.07783495 0.043954168
-0.06977479 -0.046276927 -0.12577187 0.12610851 0.06922325 -0.071453884 0.07138348 0.10349373
0.02952197 0.07082579 0.069398016 0.19601026 0.06729183 -0.005024865 0.045011263 0.040052656
-0.14612466 0.1315846 0.08425061 0.008149867 0.00848534 -0.0092882905 -0.068480924 0.11899278
0.092376016 -0.12682487 0.0028630411 0.121263936 0.022580663 0.13909367 -0.100892365 -0.031549238
0.045197006 0.11051837 0.036019754 -0.09715432 0.078648776 -0.098408855 0.08373665 -0.07467153
0.024196375 0.029233545 0.04587056 -0.051260788 0.08181268 0.14310032 -0.0018673419 -0.025874868
0.07618989 0.016468303 0.21406884 -0.11031754 0.19439855 -0.09622819 0.17435691 0.10523927
0.03979388 0.08155383 -0.10322091 0.18938589 -0.04996029 -0.05872692 0.11828123 -0.010077325
-0.03939251 0.047075186 0.02122942 -0.12467268

weight f4 [10, 100]
00000000: e5b5 593d 49ff 003d 587b 82be b717 373c
00000010: fa49 d63d 5764 00be 1f9d e23d d683 a6be
00000020: fc5e 183e 8081 88be 12b1 31be 04c4 d03b
00000030: 39f4 563d 98f5 80be 572e 0cbe cb1f 323e
00000040: 7a53 273d ed7e 043e 577f e1bd a568 723b
00000050: 2b19 493e b6e8 31be 2c76 4abe 2449 3cbe
00000060: 3fba 113e ef36 683c 9a81 883d 62e1 33be
00000070: e234 c83d ce6e be3d 34b1 203e 17b3 4a3c
00000080: 8f5a 243d 1610 f53d 696a c43d 4daa 0bbc
00000090: 2910 da3c 8a97 2a3e 4c4a dc3d 319b a6bc
000000a0: ac69 45be 5a38 4ebe 815a 54be ace6 273e
000000b0: 8178 b6be 667c 1a3e 8cc6 13be 5bd1 0bbe
000000c0: 8359 023e abb1 b03d 204f 20be 4669 d5bd
000000d0: 38a7 58be b426 143e f08d ea3d 5b65 a9bc
000000e0: 3c44 073e 96e8 88bc f144 0a3e c098 50be
000000f0: f6fd a23d 77cc 34be 3139 32be 47ce 1abc
00000100: 7340 bebd 0e77 d6bc cc43 a9be 5d22 fbbd
00000110: 6c80 2bbe c109 7bbd 3312 263e 1dc3 abbc
00000120: a72f c63c 0422 07be 1e1e 3a3d dd0a 46be
00000130: 0d66 59bc 791f a6be 7a09 d83d 484c c5bd
00000140: f9d2 2f3b 67a1 1a3d 217a 90be 5496 6cbe
00000150: 792b 45bd f948 b03d e23c 573e 19b3 29be
00000160: ca07 e0bd 8b17 8d3d f97e 603d 22a4 30be
00000170: ea47 a03d 83b8 433d d13f 64be 1d51 c03d
00000180: afaf 01bc 0a22 1c3e 5bb2 b4bd 1640 2f3d
00000190: e703 f83d e61b f0bd 9b5d 3b3c 4f3d 9ebe
000001a0: 8a39 e0bd 5038 903d 5069 393e 539f 6ebe
000001b0: d518 9abd a5de bf3d ff38 833e 8a06 16bd
000001c0: 14f3 e03c 8f6a 0f3e 62d5 233e 6701 e8bc
000001d0: 9ed7 e6bd 4045 af3d 4e50 52bb 8b17 79be
000001e0: 6acd f93d ff40 22bd df01 c6bd 578e 93bc
000001f0: 3896 23bd b769 483d 7c88 babd 80c3 4f3e
00000200: 987a 333d eec8 a7be e1e5 c13c 28b3 a8bc
00000210: d4dd 2bbe 50eb 373e 62aa 50be bb6f 963d
00000220: 401e 88be 3db7 47bd d4d4 cc3d 7264 1dbe
00000230: d374 28bd 9726 38be b9ba 613e 8d73 b83e
00000240: 83e8 4a3e 5c55 113e 04a6 343b 215c 8dbd
00000250: 77ec ff3b 1e99 94be 0580 75bc 8756 76be
00000260: 965c 0a3e 559c 00be eb74 14be d554 9c3d
00000270: c8ed a13e 4941 bd38 4030 8d3d a4d4 59bd
00000280: 7c08 5abd 7165 58be ec85 19bd d9dd 67bd
00000290: c1df 153e 1cb9 fcbc 403b e83d 8212 57be
000002a0: 244d bb3d 5571 8abd 746d 15be 9f1c c5bc
000002b0: 8f2e 48be 55d0 07be adfa 4bbe e307 11be
000002c0: aeea 18be 7b76 ea3d fab6 cdbc fbab 64be
000002d0: 1445 8e3d 971f 533c 73b9 dfbd 96d9 1e3e
000002e0: 907a 84be 3325 f1bd 82b5 673e 439c 1a3d
000002f0: 1f64 133e b434 3c3e 5e8c 01bd 01a8 83be
00000300: 7c02 54be 3dcf fa3c 307c 453d ce5e a4bd
00000310: bf27 91bc f55e 46be 2337 e13d 7329 803d
00000320: d188 84bd 6074 91bd aa33 8f3d 0199 24be
00000330: a8c5 4a3d 49bc 783d 3682 bc3c f73a 883e
00000340: 71e2 e43d a539 fc3d 4952 543e b4b0 3dbd
00000350: 865d 02be a67d f3bd 7fc0 223d c78e f93d
00000360: d54e 263e cd7c 1dbe 4c13 483e 1ab3 64be
00000370: 9d67 c23d d28c a53d 065f 0fbe 48f1 903d
00000380: 9e3c 903d 9e77 67be 4ce0 59be 5001 1f3e
00000390: d1df e63d 3eb5 253e 9763 ea3d a074 5cbd
000003a0: ee57 24be 6e88 49be fbf8 91bd 3406 3bbe
000003b0: 97e7 3bbe d7d6 d0bc 86b9 4dbe 71ce bfbe
000003c0: a425 dc3c 8d46 81be 022c 1f3e 896d 833d
000003d0: 1008 1dbd 6952 cfbd 1c3c 2f3d ee24 bd3d
000003e0: 1b81 533d dc05 513d 4535 593e d611 453e
000003f0: 96fa d23d 0749 e0bb 3c5c 643e 70bd 993d
0.053151984 0.03149346 -0.2548473 0.011175088 0.10463329 -0.12538277 0.11065125 -0.32522458
0.14879984 -0.266613 -0.17352703 0.006371023 0.052479003 -0.25187373 -0.13689552 0.1739494
0.040851094 0.12939043 -0.11010616 0.0036988643 0.19638507 -0.17373928 -0.19771641 -0.18387276
0.14231203 0.014173253 0.066653445 -0.17566445 0.097757116 0.09298478 0.15692598 0.0123718
0.040125426 0.11965959 0.095906086 -0.00852449 0.026619034 0.1665937 0.107563585 -0.020337673
-0.19278592 -0.20138684 -0.2073765 0.16396588 -0.35638812 0.15086517 -0.14431208 -0.13654082
0.12729459 0.086276375 -0.15655184 -0.1042047 -0.21157539 0.14467889 0.11452854 -0.020678213
0.13209623 -0.016712468 0.13502862 -0.2037077 0.079585955 -0.17656122 -0.1740463 -0.009448594
-0.092896365 -0.026179817 -0.33059537 -0.12262414 -0.16748208 -0.0612886 0.1621788 -0.02096706
0.024192644 -0.1319657 0.04543888 -0.19340082 -0.01326896 -0.32445887 0.105486825 -0.0963369
0.002682863 0.03775158 -0.28218177 -0.2310422 -0.048137162 0.086076684 0.21019319 -0.16572227
-0.10938986 0.06889256 0.05480859 -0.17250112 0.078262165 0.047783386 -0.22289969 0.09390471
-0.007915421 0.1524736 -0.08823081 0.042785726 0.12110119 -0.11724071 0.0114358915 -0.3090615
-0.10948475 0.07041991 0.1810658 -0.23302965 -0.075242676 0.09368638 0.25629422 -0.03662733
0.027459659 0.14005493 0.15999368 -0.028320981 -0.112715945 0.0855813 -0.0032091322 -0.24325387
0.12197383 -0.039612766 -0.09668326 -0.018012209 -0.03993818 0.048928943 -0.091080636 0.20289421
0.043818086 -0.32770485 0.023669185 -0.02059324 -0.1678384 0.17960858 -0.20377496 0.0734553
-0.2658558 -0.048758734 0.10001531 -0.15370348 -0.041127037 -0.17983471 0.22043885 0.36025658
0.19815259 0.14192718 0.0027564773 -0.06902338 0.007810171 -0.2902307 -0.0149841355 -0.24056445
0.13511881 -0.12559636 -0.14497726 0.07633368 0.31626725 9.0243826e-05 0.068939686 -0.053181306
-0.053230748 -0.21132447 -0.037481233 -0.056608055 0.14636137 -0.030849986 0.11339426 -0.21003154
0.09145573 -0.067598976 -0.14592534 -0.0240615 -0.1954901 -0.13263066 -0.19919844 -0.14163165
-0.14933273 0.114483796 -0.025111664 -0.2233123 0.06946769 0.01288595 -0.109240435 0.1551269
-0.25874758 -0.11774673 0.22627833 0.03774668 0.14393662 0.1837948 -0.031628005 -0.25714114
-0.20704073 0.030616397 0.048214138 -0.08025895 -0.017719148 -0.1937216 0.109968446 0.06257906
-0.06471408 -0.07102275 0.06992276 -0.16073991 0.049504906 0.060726438 0.023011308 0.26607487
0.11176003 0.12315682 0.20734514 -0.046311095 -0.12730989 -0.118892 0.03973436 0.12185436
0.1624101 -0.15379639 0.19538611 -0.22333947 0.09492419 0.080835 -0.14001092 0.07077271
0.07042812 -0.22604224 -0.21276969 0.15527844 0.11273158 0.1618242 0.114447765 -0.05382216
-0.16049168 -0.1968095 -0.071275674 -0.18264085 -0.18350063 -0.025493069 -0.20090303 -0.3746219
0.026873417 -0.25249138 0.15544131 0.064173765 -0.038337767 -0.1012314 0.042781934 0.092355594
0.051636796 0.05103098 0.21211727 0.19245085 0.10301702 -0.006844643 0.2230081 0.075068355

bias f4 [10]
00000000: 7790 10be 8305 c73d b9a0 9cbc de05 96bd
00000010: ad06 37bd 8b71 bf3d a9f7 e93b 4dd2 9e3d
00000020: 398f 3a3d e8d3 873c
-0.14117609 0.09717848 -0.019119607 -0.07325338 -0.0446841 0.093478285 0.007140119 0.077549554
0.045546744 0.016580537
